…
un.save without any arguments is deprecated.Changes to attributes are automatically persisted.
[32m2025-05-05 11:20:51.706[0m | [34m[1mDEBUG   [0m | [36msrc.trainers.eval_types.fine_tuning[0m:[36mget_device[0m:[36m442[0m - [34m[1mdevice: cuda:0[0m
====================================================================================================
Layer (type:depth-idx)                             Output Shape              Param #
====================================================================================================
Sequential                                         [1, 4]                    --
├─Wrapper: 1-1                                     [1, 2048, 1, 1]           --
│    └─Sequential: 2-1                             [1, 2048, 1, 1]           --
│    │    └─Conv2d: 3-1                            [1, 64, 112, 112]         9,408
│    │    └─BatchNorm2d: 3-2                       [1, 64, 112, 112]         128
│    │    └─ReLU: 3-3                              [1, 64, 112, 112]         --
│    │    └─MaxPool2d: 3-4                         [1, 64, 56, 56]           --
│    │    └─Sequential: 3-5                        [1, 256, 56, 56]          215,808
│    │    └─Sequential: 3-6                        [1, 512, 28, 28]          1,219,584
│    │    └─Sequential: 3-7                        [1, 1024, 14, 14]         7,098,368
│    │    └─Sequential: 3-8                        [1, 2048, 7, 7]           14,964,736
│    │    └─AdaptiveAvgPool2d: 3-9                 [1, 2048, 1, 1]           --
├─Flatten: 1-2                                     [1, 2048]                 --
├─LinearClassifier: 1-3                            [1, 4]                    --
│    └─BatchNorm1d: 2-2                            [1, 2048]                 4,096
│    └─Linear: 2-3                                 [1, 4]                    8,196
====================================================================================================
Total params: 23,520,324
Trainable params: 23,520,324
Non-trainable params: 0
Total mult-adds (Units.GIGABYTES): 4.09
====================================================================================================
Input size (MB): 0.60
Forward/backward pass size (MB): 177.84
Params size (MB): 94.08
…
