…
un.save without any arguments is deprecated.Changes to attributes are automatically persisted.
[32m2025-05-05 09:11:16.750[0m | [34m[1mDEBUG   [0m | [36msrc.trainers.eval_types.fine_tuning[0m:[36mget_device[0m:[36m444[0m - [34m[1mdevice: cuda:0[0m
====================================================================================================
Layer (type:depth-idx)                             Output Shape              Param #
====================================================================================================
Sequential                                         [1, 4]                    --
├─Wrapper: 1-1                                     [1, 512, 1, 1]            --
│    └─Sequential: 2-1                             [1, 512, 1, 1]            --
│    │    └─Conv2d: 3-1                            [1, 64, 112, 112]         9,408
│    │    └─BatchNorm2d: 3-2                       [1, 64, 112, 112]         128
│    │    └─ReLU: 3-3                              [1, 64, 112, 112]         --
│    │    └─MaxPool2d: 3-4                         [1, 64, 56, 56]           --
│    │    └─Sequential: 3-5                        [1, 64, 56, 56]           147,968
│    │    └─Sequential: 3-6                        [1, 128, 28, 28]          525,568
│    │    └─Sequential: 3-7                        [1, 256, 14, 14]          2,099,712
│    │    └─Sequential: 3-8                        [1, 512, 7, 7]            8,393,728
│    │    └─AdaptiveAvgPool2d: 3-9                 [1, 512, 1, 1]            --
├─Flatten: 1-2                                     [1, 512]                  --
├─LinearClassifier: 1-3                            [1, 4]                    --
│    └─BatchNorm1d: 2-2                            [1, 512]                  1,024
│    └─Linear: 2-3                                 [1, 4]                    2,052
====================================================================================================
Total params: 11,179,588
Trainable params: 11,179,588
Non-trainable params: 0
Total mult-adds (Units.GIGABYTES): 1.81
====================================================================================================
Input size (MB): 0.60
Forward/backward pass size (MB): 39.74
Params size (MB): 44.72
…
